rulisek_tripeptide/select_frags/1r69_memory_weights_2_MD_and_water.npy (npy, 189960 bytes, 1 tensors)

array f8 [61, 389]
000000 00 00 e1 d1 c6 e1 20 c0 00 00 f3 54 87 ec 23 c0
       -8.440969999996014 -9.961969999945723
000010 00 00 9f 3c 2c 64 22 c0 00 00 70 e1 40 e8 17 c0
       -9.195650000008754 -5.976809999905527
000020 00 00 20 07 25 cc 23 c0 00 00 27 66 bd f8 22 c0
       -9.898719999939203 -9.485819999943487
000030 00 00 7d 91 d0 96 27 c0 00 00 4b 76 6c 84 22 c0
       -11.794559999951161 -9.258640000014566
000040 00 00 04 1c 42 b5 1f c0 00 00 47 ac c5 d7 2a c0
       -7.927009999984875 -13.421429999987595
000050 00 00 83 c0 ca e1 21 c0 00 00 60 54 52 87 25 c0
       -8.940999999991618 -10.764299999922514
000060 00 00 86 a2 40 df 18 c0 00 00 26 53 05 13 2a c0
       -6.21801999991294 -13.037149999989197
000070 00 00 cb d6 fa e2 2b c0 00 00 59 c0 04 4e 21 c0
       -13.943319999962114 -8.652379999984987
000080 00 00 1d 03 b2 97 25 c0 00 00 30 f0 dc fb 2b c0
       -10.796280000009574 -13.991919999942183
000090 00 00 68 05 86 6c 04 c0 00 00 1b 99 47 ee 29 c0
       -2.5529899999964982 -12.965389999910258
0000a0 00 00 6d e2 e4 ae 29 c0 00 00 27 31 08 1c 27 c0
       -12.841589999967255 -11.554750000010245
0000b0 00 00 38 0b 7b 5a 1a c0 00 00 f2 7b 9b 2e 20 c0
       -6.588359999936074 -8.091030000010505
0000c0 00 00 54 a9 d9 a3 29 c0 00 00 2f f5 f3 f6 2c c0
       -12.820019999984652 -14.482329999911599
0000d0 00 00 54 f6 5d 11 1e c0 00 00 6c ca 15 8e 2d c0
       -7.5169599999208 -14.777509999927133
0000e0 00 00 92 3a 01 fd 24 c0 00 00 7e 18 21 dc 25 c0
       -10.494149999925867 -10.929939999943599
0000f0 00 00 3e cb f3 50 2c c0 00 00 ea 34 d2 32 1f c0
       -14.158109999960288 -7.799629999906756
000100 00 00 b6 ee e6 c9 1d c0 00 00 9a 20 ea 2e 2a c0
       -7.447169999941252 -13.091629999922588
000110 00 00 0c 54 c6 ff 0e c0 00 00 9c 50 88 d0 23 c0
       -3.874889999977313 -9.907290000002831
000120 00 00 eb 6e 9e 6a 28 c0 00 00 48 bf 7d 5d 13 c0
       -12.208239999949 -4.841299999970943
000130 00 00 43 c5 38 3f 24 c0 00 00 8a 59 2f c6 28 c0
       -10.123479999951087 -12.387080000014976
000140 00 00 bc 52 96 a1 1d c0 00 00 f7 3b 14 25 2b c0
       -7.407799999928102 -13.57241999998223
000150 00 00 d0 96 73 d9 22 c0 00 00 e5 0a ef 52 26 c0
       -9.424709999933839 -11.161979999975301
000160 00 00 c7 9d d2 91 23 c0 00 00 37 4f 75 88 21 c0
       -9.784809999982826 -8.766519999946468
000170 00 00 3c 31 eb c5 07 c0 00 00 f8 a5 7e be 15 c0
       -2.97164000000339 -5.436029999982566
000180 00 00 02 d4 d4 a2 20 c0 00 00 6d 6e 4c ff 24 c0
       -8.318029999965802 -10.498629999929108
000190 00 00 cc e4 9b 2d 1c c0 00 00 c7 d2 87 5e 27 c0
       -7.044539999915287 -11.68462999991607
0001a0 00 00 40 87 f9 a2 2c c0 00 00 d8 0d db 26 25 c0
       -14.318310000002384 -10.575889999978244
0001b0 00 00 4e 5d f9 6c 1e c0 00 00 8c 7f 9f 81 29 c0
       -7.606419999967329 -12.753169999923557
0001c0 00 00 af 94 65 b8 26 c0 00 00 a0 4f e4 89 1d c0
       -11.360149999964051 -7.384659999981523
0001d0 00 00 69 c1 8b de 24 c0 00 00 04 90 da 74 27 c0
       -10.434659999911673 -11.728230000007898
0001e0 00 00 0a 2e 56 14 15 c0 00 00 c4 25 c7 ed 29 c0
       -5.269860000000335 -12.96441000001505
0001f0 00 00 85 08 38 44 24 c0 00 00 2d 78 d1 67 2f c0
       -10.133239999995567 -15.702769999974407
000200 00 00 41 60 e5 a0 28 c0 00 00 02 65 53 be 26 c0
       -12.314249999937601 -11.371730000013486
000210 00 00 4d 62 10 78 26 c0 00 00 12 4e 0b 0e 2b c0
       -11.234499999904074 -13.527430000016466
000220 00 00 d4 04 51 d7 1c c0 00 00 46 55 13 c4 1f c0
       -7.2102699999231845 -7.941479999921285
000230 00 00 12 31 25 b2 19 c0 00 00 a6 7e de 94 24 c0
       -6.4239700000034645 -10.290760000003502
000240 00 00 03 b2 d7 6b 25 c0 00 00 84 f0 68 43 15 c0
       -10.71062999998685 -5.315829999977723
000250 00 00 37 1a c0 1b 20 c0 00 00 22 15 c6 56 29 c0
       -8.054200000013225 -12.669479999924079
000260 00 00 30 0d c3 57 21 c0 00 00 f8 f2 02 ec 1f c0
       -8.67140999995172 -7.98047999991104
000270 00 00 63 45 0d e6 26 c0 00 00 59 d8 d3 8e 2a c0
       -11.449320000014268 -13.278959999908693
000280 00 00 2c ec 69 67 1a c0 00 00 b5 a1 62 7c 21 c0
       -6.6009899999480695 -8.74293999990914
000290 00 00 50 a5 66 0f 2f c0 00 00 f0 16 48 10 14 c0
       -15.530079999938607 -5.01589999999851
0002a0 00 00 22 32 ac 02 23 c0 00 00 00 c6 33 98 25 c0
       -9.505219999933615 -10.797269999980927
0002b0 00 00 c4 20 b0 72 0e c0 00 00 85 b1 85 40 23 c0
       -3.805999999982305 -9.626019999966957
0002c0 00 00 e2 01 65 73 25 c0 00 00 67 ed b6 bb 2e c0
       -10.725379999959841 -15.366629999945872
0002d0 00 00 72 4b ab e1 24 c0 00 00 32 e1 97 5a 28 c0
       -10.44075999991037 -12.176939999917522
0002e0 00 00 3a e4 66 38 27 c0 00 00 fe 26 14 52 20 c0
       -11.61015999992378 -8.160309999948367
0002f0 00 00 8c 62 b9 e5 1e c0 00 00 9f 71 e1 e0 2c c0
       -7.72433999995701 -14.439219999941997
000300 00 00 cc ee c9 23 20 c0 00 00 11 88 d7 f5 23 c0
       -8.069900000002235 -9.980159999919124
000310 00 00 92 91 b3 c0 28 c0 00 00 09 33 6d cf 21 c0
       -12.376369999954477 -8.905129999970086
000320 00 00 78 b4 71 34 22 c0 00 00 5b 77 f3 e4 2b c0
       -9.1024299999699 -13.947169999941252
000330 00 00 85 42 04 9c 22 c0 00 00 b6 b9 31 3d 17 c0
       -9.30472000001464 -5.809759999974631
000340 00 00 b4 8e aa 46 13 c0 00 00 d8 08 c4 cb 1a c0
       -4.819009999977425 -6.698989999946207
000350 00 00 fe 95 95 86 19 c0 00 00 bc 3f de 6b 09 c0
       -6.381429999950342 -3.177670000004582
000360 00 00 20 59 c0 e4 14 c0 00 00 02 48 6d 02 24 c0
       -5.223389999940991 -10.004740000003949
000370 00 00 c6 16 82 5c 1e c0 00 00 2e 39 ee 94 2a c0
       -7.590339999995194 -13.290879999985918
000380 00 00 ed 25 8d 61 27 c0 00 00 90 bd de 5d 24 c0
       -11.690529999905266 -10.183339999988675
000390 00 00 4d 2d 5b 2b 22 c0 00 00 5e ef fe d8 12 c0
       -9.084679999970831 -4.711909999954514
0003a0 00 00 7e 18 21 6c 25 c0 00 00 ac 34 29 c5 06 c0
       -10.711189999943599 -2.846269999979995
0003b0 00 00 a7 ae 7c 56 26 c0 00 00 e0 2d 90 60 20 c0
       -11.16891999996733 -8.18859999999404
0003c0 00 00 66 bd 18 3a 26 c0 00 00 f8 d5 1c 00 10 c0
       -11.113469999982044 -4.000109999906272
0003d0 00 00 d6 ff 39 dc 23 c0 00 00 7a 53 91 1a 28 c0
       -9.930129999993369 -12.051890000002459
0003e0 00 00 ec 69 87 2f 21 c0 00 00 50 8d 97 2e 22 c0
       -8.592829999979585 -9.091000000014901
0003f0 00 00 40 9f c8 43 2f c0 00 00 76 be 9f 5a 28 c0
       -15.63238999992609 -12.17699999990873
000400 00 00 ef a7 c6 fb 22 c0 00 00 42 95 9a 3d 21 c0
       -9.491749999928288 -8.62031999998726
000410 00 00 df be 0e 7c 28 c0 00 00 f8 a0 67 b3 16 c0
       -12.242299999925308 -5.67519999993965
000420 00 00 d8 b6 28 73 14 c0 00 00 5a 64 3b df 1d c0
       -5.112459999974817 -7.467999999993481
000430 00 00 ee 03 90 9a 18 c0 00 00 9e 98 f5 82 1b c0
       -6.150939999963157 -6.87789000000339
000440 00 00 c8 5e ef fe 22 c0 00 00 c4 94 48 02 26 c0
       -9.497919999994338 -11.004459999967366
000450 00 00 50 66 83 4c 00 c0 00 00 f7 01 48 1d 24 c0
       -2.0373599999584258 -10.057189999963157
000460 00 00 54 6f 0d 4c 20 c0 00 00 bc cb 45 3c 2b c0
       -8.148539999965578 -13.617719999980181
000470 00 00 f4 a6 22 75 1e c0 00 00 01 6a 6a f9 29 c0
       -7.614390000002459 -12.987139999982901
000480 00 00 a9 48 85 81 24 c0 00 00 8a 1f 63 ee 25 c0
       -10.252969999914058 -10.965599999995902
000490 00 00 14 8c 4a 8a 1e c0 00 00 a7 ae 7c e6 2a c0
       -7.635049999924377 -13.45016999996733
0004a0 00 00 30 d3 f6 0f 23 c0 00 00 a2 d1 1d 64 1a c0
       -9.531179999932647 -6.597769999993034
0004b0 00 00 5f 7b 66 29 26 c0 00 00 fe 43 fa 6d 19 c0
       -11.080859999987297 -6.357399999978952
0004c0 00 00 8c 10 1e cd 1d c0 00 00 5e 2e e2 db 26 c0
       -7.45030999998562 -11.429460000013933
0004d0 00 00 cc 23 7f c0 26 c0 00 00 85 77 b9 98 29 c0
       -11.375969999935478 -12.798289999947883
0004e0 00 00 b1 16 9f b2 29 c0 00 00 16 a4 19 7b 26 c0
       -12.848869999987073 -11.24043000000529
0004f0 00 00 26 66 bd f8 1e c0 00 00 00 00 00 00 00 00
       -7.742909999913536 0.0
000500 00 00 92 91 b3 50 16 c0 00 00 60 84 f0 e8 fb bf
       -5.5788099999772385 -1.7443699999712408
000510 00 00 1e 16 6a fd 29 c0 00 00 c8 7b d5 ea 1d c0
       -12.994949999963865 -7.479330000001937
000520 00 00 67 ed b6 0b 26 c0 00 00 5d f9 2c 9f 21 c0
       -11.022879999945872 -8.810889999964274
000530 00 00 0d db 16 25 24 c0 00 00 92 1d 1b 61 16 c0
       -10.07243999990169 -5.594829999958165
000540 00 00 76 be 9f 7a 2b c0 00 00 64 e9 43 57 16 c0
       -13.73949999990873 -5.585220000008121
000550 00 00 66 83 4c 02 29 c0 00 00 ac 4c f8 a5 1f c0
       -12.50448999996297 -7.912079999921843
000560 00 00 5c fe 43 da 2a c0 00 00 72 85 77 39 2a c0
       -13.42629999993369 -13.112239999929443
000570 00 00 2f fa 0a c2 25 c0 00 00 87 2e a8 3f 27 c0
       -10.87898999999743 -11.624329999904148
000580 00 00 20 cd 58 74 20 c0 00 00 35 24 ee 01 24 c0
       -8.22723999992013 -10.003769999952056
000590 00 00 52 96 21 ee 18 c0 00 00 d4 4c be d9 0e c0
       -6.232549999956973 -3.856319999904372
0005a0 00 00 60 3c 83 66 1c c0 00 00 35 41 d4 bd 20 c0
       -7.100109999999404 -8.370759999961592
0005b0 00 00 b0 9e 93 de ee bf 00 00 1a f5 10 3d 29 c0
       -0.964670000015758 -12.619269999908283
0005c0 00 00 ba 66 f2 cd 16 c0 00 00 d4 b7 cc d9 28 c0
       -5.701119999983348 -12.42538999998942
0005d0 00 00 97 c5 c4 16 23 c0 00 00 30 d3 f6 8f 1f c0
       -9.544469999964349 -7.890589999966323
0005e0 00 00 52 e8 bc 66 1c c0 00 00 cc d1 e3 17 2b c0
       -7.100329999928363 -13.546659999992698
0005f0 00 00 ff ad 64 f7 23 c0 00 00 35 d2 52 89 26 c0
       -9.983189999940805 -11.268210000009276
000600 00 00 30 b6 10 04 16 c0 00 00 8e 1e bf 37 28 c0
       -5.503969999961555 -12.108879999956116
000610 00 00 f0 f4 4a a9 2a c0 00 00 55 13 44 1d 28 c0
       -13.330649999901652 -12.057159999967553
000620 00 00 2e 56 d4 90 2c c0 00 00 fa 5c 6d a5 24 c0
       -14.282869999995455 -10.323099999921396
000630 00 00 2d ca 6c 90 29 c0 00 00 6f 99 d3 55 22 c0
       -12.782079999917187 -9.16762999992352
000640 00 00 00 00 00 00 00 00 00 00 00 00 00 00 00 00
       0.0 0.0
000650 00 00 00 00 00 00 00 00 00 00 00 00 00 00 00 00
       0.0 0.0
000660 00 00 00 00 00 00 00 00 00 00 00 00 00 00 00 00
       0.0 0.0
000670 00 00 00 00 00 00 00 00 00 00 00 00 00 00 00 00
       0.0 0.0
000680 00 00 00 00 00 00 00 00 00 00 00 00 00 00 00 00
       0.0 0.0
000690 00 00 00 00 00 00 00 00 00 00 00 00 00 00 00 00
       0.0 0.0
0006a0 00 00 00 00 00 00 00 00 00 00 00 00 00 00 00 00
       0.0 0.0
0006b0 00 00 00 00 00 00 00 00 00 00 00 00 00 00 00 00
       0.0 0.0
0006c0 00 00 00 00 00 00 00 00 00 00 00 00 00 00 00 00
       0.0 0.0
0006d0 00 00 00 00 00 00 00 00 00 00 00 00 00 00 00 00
       0.0 0.0
0006e0 00 00 00 00 00 00 00 00 00 00 00 00 00 00 00 00
       0.0 0.0
0006f0 00 00 00 00 00 00 00 00 00 00 00 00 00 00 00 00
       0.0 0.0
000700 00 00 00 00 00 00 00 00 00 00 00 00 00 00 00 00
       0.0 0.0
000710 00 00 00 00 00 00 00 00 00 00 00 00 00 00 00 00
       0.0 0.0
000720 00 00 00 00 00 00 00 00 00 00 00 00 00 00 00 00
       0.0 0.0
000730 00 00 00 00 00 00 00 00 00 00 00 00 00 00 00 00
       0.0 0.0
000740 00 00 00 00 00 00 00 00 00 00 00 00 00 00 00 00
       0.0 0.0
000750 00 00 00 00 00 00 00 00 00 00 00 00 00 00 00 00
       0.0 0.0
000760 00 00 00 00 00 00 00 00 00 00 00 00 00 00 00 00
       0.0 0.0
000770 00 00 00 00 00 00 00 00 00 00 00 00 00 00 00 00
       0.0 0.0
000780 00 00 00 00 00 00 00 00 00 00 00 00 00 00 00 00
       0.0 0.0
000790 00 00 00 00 00 00 00 00 00 00 00 00 00 00 00 00
       0.0 0.0
0007a0 00 00 00 00 00 00 00 00 00 00 00 00 00 00 00 00
       0.0 0.0
0007b0 00 00 00 00 00 00 00 00 00 00 00 00 00 00 00 00
       0.0 0.0
0007c0 00 00 00 00 00 00 00 00 00 00 00 00 00 00 00 00
       0.0 0.0
0007d0 00 00 00 00 00 00 00 00 00 00 00 00 00 00 00 00
       0.0 0.0
0007e0 00 00 00 00 00 00 00 00 00 00 00 00 00 00 00 00
       0.0 0.0
0007f0 00 00 00 00 00 00 00 00 00 00 00 00 00 00 00 00
       0.0 0.0
