rulisek_tripeptide/select_frags/1r69_memory_weights_2_protein_and_water.npy (npy, 189960 bytes, 1 tensors)

array f8 [61, 389]
00000000: 0000 6cb2 466d 2ac0 0000 7fa4 88dc 20c0
00000010: 0000 0551 f721 29c0 0000 4cea 04d4 1ec0
00000020: 0000 3546 eb58 2cc0 0000 ea43 17d4 23c0
00000030: 0000 cfbd 876b 29c0 0000 4e7f f623 17c0
00000040: 0000 d2c6 117b 24c0 0000 5530 2a19 2bc0
00000050: 0000 8e23 d632 27c0 0000 fbcb ee29 2cc0
00000060: 0000 d387 2ea8 20c0 0000 d34d 62d0 2fc0
00000070: 0000 c638 7f73 29c0 0000 0894 4d99 21c0
00000080: 0000 c594 4832 29c0 0000 8273 46d4 2ec0
00000090: 0000 9c1b d353 13c0 0000 959f 54cb 2fc0
000000a0: 0000 5beb 8bf4 2dc0 0000 41d9 943b 2ec0
000000b0: 0000 c28b be62 26c0 0000 f77a f7f7 24c0
000000c0: 0000 0f45 816e 2bc0 0080 d5e7 6a0b 31c0
000000d0: 0000 2a3a 92ab 1ec0 0000 6553 ae50 2dc0
000000e0: 0000 eaec 6440 29c0 0000 88f9 f2e2 2dc0
000000f0: 0000 3c4e d1f9 30c0 0000 f567 3fc2 23c0
00000100: 0000 7a3b c2e9 20c0 0000 4c71 5579 2dc0
00000110: 0000 564d 1095 1ec0 0000 e44e e950 27c0
00000120: 0000 c9b0 8a37 27c0 0000 7c49 6374 17c0
00000130: 0000 6423 10bf 29c0 0000 1f68 0516 2dc0
00000140: 0000 f567 3f22 23c0 0000 20ef 559b 2ec0
00000150: 0000 8db9 6bf9 25c0 0000 0309 8a5f 26c0
00000160: 0000 9ce1 06fc 26c0 0000 a857 cac2 20c0
00000170: 0000 965b 5acd 14c0 0000 4abf 7d9d 1ec0
00000180: 0000 4278 b401 25c0 0000 2b6a 30ad 29c0
00000190: 0000 a9de 1ab8 24c0 0000 b684 7c30 2ac0
000001a0: 0000 5e11 fc87 30c0 0000 7671 1bed 2bc0
000001b0: 0000 8733 bf4a 25c0 0000 8677 b9a8 2ac0
000001c0: 0000 f8e4 61d1 2cc0 0000 098a 1fd3 24c0
000001d0: 0000 9279 e40f 29c0 0000 045b 2538 2dc0
000001e0: 0000 6a87 bfe6 12c0 0000 a722 1546 2ac0
000001f0: 0000 ed47 8a78 26c0 0000 65c7 4680 31c0
00000200: 0000 f988 9842 2dc0 0000 1422 e0e0 25c0
00000210: 0000 af99 7c03 2ac0 0000 c594 48e2 2bc0
00000220: 0000 c26e d8b6 22c0 0000 fed9 8f94 20c0
00000230: 0000 cb10 c7ea 22c0 0000 9014 9121 27c0
00000240: 0000 c7d7 9ef9 29c0 0000 6e86 1b10 1ac0
00000250: 0000 603c 8336 28c0 0000 967d 57b4 24c0
00000260: 0000 f792 c6b8 22c0 0000 5de1 5d6e 22c0
00000270: 0000 6076 4f4e 25c0 0000 3fae 0d15 2ec0
00000280: 0000 93a9 8261 22c0 0000 ac3e 57eb 26c0
00000290: 0080 d5ca 8437 30c0 0000 a132 fe6d 25c0
000002a0: 0000 3199 2a48 27c0 0080 c8cd 705b 30c0
000002b0: 0000 fe43 fa0d 17c0 0000 7f6f d3ef 27c0
000002c0: 0000 8178 5d8f 24c0 0000 4d15 8c8a 2ec0
000002d0: 0000 6a87 bf66 26c0 0080 68ae d320 30c0
000002e0: 0000 6766 66c6 29c0 0000 6267 0a0d 24c0
000002f0: 0000 bb49 0c42 28c0 0000 0a2e 56dc 30c0
00000300: 0000 43e7 3556 21c0 0000 6328 27ea 28c0
00000310: 0000 addd 7661 30c0 0000 9fb0 c463 29c0
00000320: 0000 50aa 7dfa 1ec0 0000 6a4d f306 30c0
00000330: 0000 3df2 0723 29c0 0000 16fb cbee 1ac0
00000340: 0000 aed3 48eb 1fc0 0000 5a0d 899b 15c0
00000350: 0000 8f70 5aa0 25c0 0000 8e62 b9a5 16c0
00000360: 0000 9296 caeb 22c0 0000 38f8 c274 27c0
00000370: 0000 c9cd 70e3 25c0 0080 83a3 e47d 31c0
00000380: 0000 5ef4 1544 29c0 0000 07f0 16b8 25c0
00000390: 0000 e1b4 e095 27c0 0000 8cdb 6820 13c0
000003a0: 0000 6822 6c98 2ac0 0000 b0df be0e e0bf
000003b0: 0000 6dca 15de 24c0 0000 d4c1 fa7f 1cc0
000003c0: 0000 3e79 58d8 27c0 0000 941d 1b21 1ac0
000003d0: 0000 8e92 5787 28c0 0000 90bd de2d 2dc0
000003e0: 0000 bac2 bb9c 27c0 0000 ce1e 6895 28c0
000003f0: 0080 9b72 854f 31c0 0000 838b 15d5 2ac0
00000400: 0000 dfab 5656 25c0 0000 0265 530e 29c0
00000410: 0000 8811 c283 2ac0 0000 c3bb 5c64 21c0
00000420: 0000 5d8a ab9a 21c0 0000 4b1f bae0 24c0
00000430: 0000 d235 930f 1bc0 0000 ad8b dba8 21c0
00000440: 0000 d196 73f9 28c0 0000 03ec a3a3 2bc0
00000450: 0000 0050 70b1 e2bf 0000 0e6c 95c0 29c0
00000460: 0000 d2ae 426a 20c0 0000 d9ce f733 31c0
00000470: 0000 32b6 10c4 17c0 0000 fa0a d26c 2fc0
00000480: 0000 0b80 f14c 28c0 0000 e8c1 dd29 25c0
00000490: 0000 d061 be2c 22c0 0000 0dfd 131c 29c0
000004a0: 0000 7975 8e51 28c0 0000 26aa b786 1ec0
000004b0: 0000 6f64 1e29 2ac0 0000 c4d3 2b75 22c0
000004c0: 0000 0950 53fb 24c0 0000 cd92 0075 2cc0
000004d0: 0000 4b24 d18b 26c0 0000 8c4a ea54 2dc0
000004e0: 0000 2fe2 3be1 2dc0 0000 f5a1 0b9a 27c0
000004f0: 0000 a29c 6837 1ec0 0000 0000 0000 0000
00000500: 0000 846e 2f89 1fc0 0000 328f fca1 18c0
00000510: 0080 7c27 667d 30c0 0000 4a80 9a5a 1cc0
00000520: 0000 9144 2f73 28c0 0000 96b7 231c 1fc0
00000530: 0000 dcdc 981e 27c0 0000 a0ea 905b 18c0
00000540: 0080 2ee2 3be9 30c0 0000 d86e bb10 1bc0
00000550: 0000 946f b649 2ac0 0000 efac dd56 24c0
00000560: 0000 e301 6583 2dc0 0000 ab09 a2de 29c0
00000570: 0000 5a12 a046 2cc0 0000 2aa9 13d0 2cc0
00000580: 0000 22e0 10fa 22c0 0000 c841 0963 2bc0
00000590: 0000 4390 83d2 22c0 0000 4a46 ce82 14c0
000005a0: 0000 5abb ed92 24c0 0000 c66d 3430 25c0
000005b0: 0000 5e85 94df 12c0 0000 5ef4 1594 2ac0
000005c0: 0000 04ca a60c 22c0 0080 7380 6046 30c0
000005d0: 0000 9bac 518f 28c0 0000 460d a611 24c0
000005e0: 0000 c74b 37c9 20c0 0080 b0e1 e9fd 30c0
000005f0: 0000 7463 7aa2 27c0 0000 dfab 56a6 23c0
00000600: 0000 f050 1408 18c0 0000 bf0e 9cd3 2cc0
00000610: 0000 2271 8f25 2ec0 0000 5587 dc2c 2cc0
00000620: 0000 b5c3 5fe3 2cc0 0000 072a e35f 25c0
00000630: 0000 aa0e b941 30c0 0000 5c8f c275 25c0
00000640: 0000 0000 0000 0000 0000 0000 0000 0000
00000650: 0000 0000 0000 0000 0000 0000 0000 0000
00000660: 0000 0000 0000 0000 0000 0000 0000 0000
00000670: 0000 0000 0000 0000 0000 0000 0000 0000
00000680: 0000 0000 0000 0000 0000 0000 0000 0000
00000690: 0000 0000 0000 0000 0000 0000 0000 0000
000006a0: 0000 0000 0000 0000 0000 0000 0000 0000
000006b0: 0000 0000 0000 0000 0000 0000 0000 0000
000006c0: 0000 0000 0000 0000 0000 0000 0000 0000
000006d0: 0000 0000 0000 0000 0000 0000 0000 0000
000006e0: 0000 0000 0000 0000 0000 0000 0000 0000
000006f0: 0000 0000 0000 0000 0000 0000 0000 0000
00000700: 0000 0000 0000 0000 0000 0000 0000 0000
00000710: 0000 0000 0000 0000 0000 0000 0000 0000
00000720: 0000 0000 0000 0000 0000 0000 0000 0000
00000730: 0000 0000 0000 0000 0000 0000 0000 0000
00000740: 0000 0000 0000 0000 0000 0000 0000 0000
00000750: 0000 0000 0000 0000 0000 0000 0000 0000
00000760: 0000 0000 0000 0000 0000 0000 0000 0000
00000770: 0000 0000 0000 0000 0000 0000 0000 0000
00000780: 0000 0000 0000 0000 0000 0000 0000 0000
00000790: 0000 0000 0000 0000 0000 0000 0000 0000
000007a0: 0000 0000 0000 0000 0000 0000 0000 0000
000007b0: 0000 0000 0000 0000 0000 0000 0000 0000
000007c0: 0000 0000 0000 0000 0000 0000 0000 0000
000007d0: 0000 0000 0000 0000 0000 0000 0000 0000
000007e0: 0000 0000 0000 0000 0000 0000 0000 0000
000007f0: 0000 0000 0000 0000 0000 0000 0000 0000
-13.213430000003427 -8.430730000021867 -12.566340000019409 -7.707050000084564 -14.173670000047423 -9.914240000071004 -12.710019999998622 -5.785120000015013
-10.240370000014082 -13.54914999997709 -11.599290000041947 -14.081899999990128 -8.328480000025593 -15.90700000000652 -12.725580000085756 -8.799420000053942
-12.598210000083782 -15.414600000018254 -4.831860000034794 -15.897130000055768 -14.9776299999794 -15.116370000061579 -11.192860000068322 -10.484310000087135
-13.715830000001006 -17.04460000002291 -7.667550000012852 -14.657579999999143 -12.625770000042394 -14.94326000008732 -16.975850000046194 -9.879390000016429
-8.456560000078753 -14.73698000004515 -7.645570000051521 -11.65803000004962 -11.608480000053532 -5.863660000031814 -12.873170000035316 -14.54301000002306
-9.566890000016429 -15.303390000015497 -10.987150000059046 -11.18660000001546 -11.492240000050515 -8.380450000055134 -5.200539999990724 -7.653800000087358
-10.503329999977723 -12.838259999989532 -10.359580000047572 -13.094700000016019 -16.53119000000879 -13.963100000051782 -10.645989999989979 -13.329540000064299
-14.408950000070035 -10.412349999998696 -12.531040000030771 -14.609660000074655 -4.725340000004508 -13.136880000005476 -11.235430000000633 -17.50108000007458
-14.63007000007201 -10.939209999982268 -13.006810000049882 -13.941960000083782 -9.357120000058785 -8.290160000091419 -9.458549999981187 -11.565560000017285
-12.9875400000019 -6.5157299999846146 -12.106469999998808 -10.352230000076815 -9.36089000001084 -9.215560000040568 -10.652950000017881 -15.041120000067167
-9.190449999994598 -11.459650000091642 -16.216870000003837 -10.714830000069924 -11.640950000029989 -16.357190000009723 -5.763649999978952 -11.968410000088625
-10.28000999998767 -15.270600000047125 -11.200680000009015 -16.12823000003118 -12.88750000006985 -10.02546999999322 -12.129000000073574 -16.86069000000134
-8.668380000046454 -12.457330000004731 -16.38072000001557 -12.694860000046901 -7.744620000012219 -16.027149999979883 -12.568420000025071 -6.73320000001695
-7.97976999997627 -5.401889999979176 -10.813190000015311 -5.6618400000734255 -9.460530000040308 -11.728050000034273 -10.94422000006307 -17.491770000080578
-12.632979999994859 -10.859550000051968 -11.792729999986477 -4.781650000018999 -13.29769999999553 -0.5018000000854954 -10.433760000043549 -7.124980000080541
-11.922550000017509 -6.53233000007458 -12.264339999994263 -14.589589999988675 -11.806120000081137 -12.291810000082478 -17.310630000079982 -13.416180000058375
-10.668630000087433 -12.527980000013486 -13.257340000011027 -8.69602000003215 -8.802090000011958 -10.438919999985956 -6.765209999983199 -8.829800000065006
-12.487210000050254 -13.819610000005923 -0.5841600000858307 -12.876140000065789 -8.207540000090376 -17.20299999997951 -5.94147000007797 -15.712539999978617
-12.150280000059865 -10.581770000047982 -9.087390000000596 -12.554839999997057 -12.15928999998141 -7.631560000008903 -13.080309999990277 -9.22885000007227
-10.490869999979623 -14.22852000000421 -11.273080000071786 -14.665849999990314 -14.939910000073723 -11.800870000035502 -7.554110000026412 0.0
-7.883970000082627 -6.158189999987371 -16.489840000052936 -7.088480000034906 -12.224969999981113 -7.7774800000479445 -11.559760000091046 -6.089420000091195
-16.91107000003103 -6.766340000089258 -13.14397000009194 -10.169660000014119 -14.756630000076257 -12.934830000041984 -14.137940000044182 -14.40639999997802
-9.488409999990836 -13.6934299999848 -9.411160000017844 -5.127740000025369 -10.286970000015572 -10.594150000018999 -4.718340000021271 -13.289229999994859
-9.024710000026971 -16.27491000003647 -12.279920000000857 -10.034470000071451 -8.393000000040047 -16.991849999991246 -11.817340000066906 -9.824880000087433
-6.007890000008047 -14.413300000014715 -15.07336000003852 -14.0876200000057 -14.444090000004508 -10.687280000071041 -16.2567300000228 -10.729999999981374
0.0 0.0 0.0 0.0 0.0 0.0 0.0 0.0
0.0 0.0 0.0 0.0 0.0 0.0 0.0 0.0
0.0 0.0 0.0 0.0 0.0 0.0 0.0 0.0
0.0 0.0 0.0 0.0 0.0 0.0 0.0 0.0
0.0 0.0 0.0 0.0 0.0 0.0 0.0 0.0
0.0 0.0 0.0 0.0 0.0 0.0 0.0 0.0
0.0 0.0 0.0 0.0 0.0 0.0 0.0 0.0
